b1_ini.npy (npy, 528 bytes, 1 tensors)

array f4 [100]
-0.0338099 -0.017160904 -0.0042439336 -0.028877899 0.06056072 0.0040398454 -0.006167199 -0.019630978
-0.0027808917 -0.003854823 0.07138728 0.0076700523 -0.0016608211 -0.010496503 0.009378283 0.018099338
-0.001840917 -0.061944887 -0.007576856 0.002758833 -0.009451798 -0.009134213 0.032479767 2.1357462e-05
0.019406999 0.01312357 -0.0026314436 -0.0049726786 0.0022867308 -0.015562214 0.016017219 -0.014868031
-0.041828167 0.042362776 -0.0048694746 0.0034095622 0.0 -0.0053607523 -0.007195258 0.036036856
0.039964058 0.0 0.0 0.005995034 0.01811851 0.013975925 -0.0012396048 0.004882931
-0.0305474 -0.00054642506 0.0010749924 -0.020271216 0.012397003 0.011299356 -0.021270948 0.0062780776
-0.0060895993 0.032774888 0.00910695 -0.031389803 -0.016999302 -0.006346468 -0.020529209 -0.024922179
-0.010437357 -0.002031964 -0.031482525 0.030903028 0.01728693 0.0 0.0 0.03230146
-0.012291728 -0.04255922 -0.047849037 -0.009513485 0.015906505 -0.0036533556 -0.027733926 -0.00029801452
-0.029286643 -0.003698452 0.009999724 0.009716843 -0.019974843 -0.009279091 -0.007836993 0.0
0.020597225 -0.006097358 0.012677829 -0.01369335 0.006170624 -0.0038747187 -0.0013102269 -0.0030282573
-0.015796313 -0.0050685285 -0.014011324 -0.012192958
00000000: 407c 0abd 0695 8cbc b210 8bbb 5891 ecbc
00000010: 840e 783d ae60 843b 3716 cabb 25d1 a0bc
00000020: 9f3f 36bb 33a1 7cbb 7f33 923d 1055 fb3b
00000030: e9af d9ba 86f9 2bbc 5fa7 193c 1045 943c
00000040: ed4a f1ba ecb9 7dbd 4647 f8bb 8acd 343b
00000050: b7db 1abc aba7 15bc 8109 053d cd28 b337
00000060: 6dfb 9e3c 3e04 573c 4c74 2cbb daf1 a2bb
00000070: fadc 153b a8f8 7ebc 8b36 833c 0b99 73bc
00000080: 0354 2bbd 9784 2d3d 1d90 9fbb f672 5f3b
00000090: 0000 0000 40a9 afbb 33c6 ebbb 629b 133d
000000a0: 5ab1 233d 0000 0000 0000 0000 fd71 c43b
000000b0: 456d 943c 47fb 643c 3c7a a2ba fe00 a03b
000000c0: 8a3e fabc f73d 0fba c2e6 8c3a d20f a6bc
000000d0: cd1c 4b3c ef20 393c 6940 aebc 55b8 cd3b
000000e0: 438b c7bb f63e 063d 5135 153c 9892 00bd
000000f0: 1f42 8bbc 08f6 cfbb df2c a8bc 9929 ccbc
00000100: 7301 2bbc b32a 05bb d2f3 00bd 5928 fd3c
00000110: 529d 8d3c 0000 0000 0000 0000 894e 043d
00000120: 3e63 49bc 9452 2ebd 5afd 43bd 73de 1bbc
00000130: 5c4e 823c 236d 6fbb 4232 e3bc d53e 9cb9
00000140: 8bea efbc ba61 72bb e2d5 233c 6533 1f3c
00000150: 48a2 a3bc 5407 18bc bb66 00bc 0000 0000
00000160: 83bb a83c 59cc c7bb abb6 4f3c 135a 60bc
00000170: f232 ca3b feee 7dbb ebbb abba ba75 46bb
00000180: 4567 81bc e615 a6bb c18f 65bc f9c4 47bc
