b2_ini.npy (npy, 528 bytes, 1 tensors)

array f4 [100]
00000000: 3b1b fbbc 22b3 57bc 4c72 96bc 7b7c 83bc
00000010: d51d 5d3b b70f 263c be08 843b a430 133c
00000020: 1282 cabb 0000 0000 5edf 0d3d cdc7 a1bc
00000030: 4161 74bc f679 55bc 15f3 3f3b 701f ed3c
00000040: 0000 0000 675e f7bb 7d28 0fbc 24fc bfbb
00000050: 4977 dfbc 27e5 bdba 7885 13bc 1d18 6cbc
00000060: 0000 0000 77bb c1ba b11f b43c 4f97 f9bb
00000070: 65df 843a dd8d 05bc 5c7e b23c 7c0f 2cbc
00000080: 332d 783c ba51 133d 5f89 5b3b c753 c73c
00000090: 0000 0000 aa26 4abd 7240 9a3c bf41 943c
000000a0: dd28 7ebb f927 7fbb 32ee 4ab8 a6ba 18bd
000000b0: 0000 0000 9028 36bc 6c82 89bd 225f 013d
000000c0: 32ce 3fbc 96ef 5fbc 8088 a93d 7d59 2c3a
000000d0: 00eb c93b cae7 733c 0c6a 863c d1a8 48bd
000000e0: 548f 2e3d 644c f1bc 783b 0bbb 0000 0000
000000f0: 898c 9b3a 649e 373d 0f5b 18bb 5db9 06bc
00000100: 3009 5f3c 9193 123d 5766 5a3d 0000 0000
00000110: f04d 593d 3cbb c23b c139 20bd abf5 ae3c
00000120: d1a4 bf3c e0d3 4f3c ba27 e4bb 5008 aebc
00000130: a2fd 8d3c 31cd 83bc 9c8e 2f3c d0ca 953c
00000140: 0bb1 6abd 2501 2a3d 0000 0000 c950 f5bc
00000150: 7c6c 49bb db17 a03d d01b e4ba 82d9 4d3c
00000160: 3536 393d 28f2 193d 205a 76bc 7af8 a2bc
00000170: aee7 a9bc a176 e73c 2ce9 2cbd 1f66 6b3c
00000180: b180 45bb fd5b 22bd 0f72 dabb 106b 093d
-0.030652633 -0.013165267 -0.018365048 -0.016050568 0.0033739705 0.010135583 0.0040293625 0.008983765
-0.0061800564 0.0 0.034636848 -0.019748593 -0.014915765 -0.013029566 0.0029289175 0.028945655
0.0 -0.0075490954 -0.0087376805 -0.005858915 -0.02727856 -0.0014487848 -0.009003989 -0.014410046
0.0 -0.00147806 0.021987768 -0.0076169143 0.0010137378 -0.008151499 0.021788768 -0.010501739
0.015147495 0.035966612 0.0033498628 0.02433194 0.0 -0.04935328 0.018829558 0.018097756
-0.003878168 -0.0038933738 -4.838239e-05 -0.037287377 0.0 -0.011118069 -0.06714329 0.031584866
-0.011706876 -0.013667962 0.082779884 0.0006574614 0.0061620474 0.014886806 0.016407989 -0.04898912
0.042617157 -0.029455371 -0.0021245163 0.0 0.0011867444 0.044828787 -0.0023247635 -0.008222905
0.01361303 0.03578526 0.053320255 0.0 0.053052843 0.0059427302 -0.03911758 0.021357378
0.02339402 0.012684792 -0.0069627436 -0.021244198 0.017332856 -0.016089054 0.010715153 0.018285185
-0.057297748 0.041504998 0.0 -0.029945748 -0.0030734828 0.0781705 -0.0017403308 0.012564065
0.04521771 0.037584454 -0.015036136 -0.019893873 -0.020740356 0.028254809 -0.042214558 0.014367609
-0.003013652 -0.039638508 -0.006666429 0.03354937
