W1_ini.npy (npy, 2128 bytes, 1 tensors)

array f4 [5, 100]
0	0xbd8af8b9	-0.06785721
1	0x3e28a2fb	0.16468422
2	0xbdb05ed6	-0.086118385
3	0xbd89c235	-0.06726495
4	0xbdad74a5	-0.08469514
5	0x3a3a3596	0.0007103322
6	0xbe4fc3d2	-0.20289543
7	0x3d7582b8	0.059939116
8	0x3c8fdb67	0.017560674
9	0xbe0fc7b5	-0.14041026
10	0x3e3f2797	0.18667446
11	0x3e3c9885	0.18417557
12	0x3e19f2be	0.15034005
13	0xbdb12f15	-0.08651558
14	0x3df9110a	0.12161453
15	0xbe1080f2	-0.14111689
16	0xbe272470	-0.16322494
17	0xbe08f9d9	-0.1337656
18	0xbd135b01	-0.03597546
19	0x3e13cece	0.14434358
20	0x3b9a7b58	0.0047144108
21	0x3db27e40	0.087154865
22	0x3d5e9e23	0.05435003
23	0xbcc8c2f9	-0.024507033
24	0x3e5dcaff	0.21659468
25	0xbe383f7a	-0.17992964
26	0xbe5af6ff	-0.21383284
27	0xbdf2edb7	-0.11861747
28	0xbda7a520	-0.08185792
29	0xbd9233d5	-0.071387924
30	0x3d72d696	0.059286676
31	0xbdcdfa9f	-0.10057568
32	0xbdc3aed5	-0.09554831
33	0x3e893af3	0.26802787
34	0x3e10b6be	0.1413221
35	0xbe02873d	-0.12746902
36	0xbce50660	-0.027957141
37	0x3de113f2	0.109901324
38	0xbe13991c	-0.14413875
39	0x3e529b41	0.20567037
40	0xbe5bd48f	-0.21467803
41	0xbdcc8370	-0.09986007
42	0xbe6fdac0	-0.2342329
43	0xbce464cf	-0.0278801
44	0xbccbb430	-0.024866194
45	0xbe0988bb	-0.13431065
46	0xbb2c9435	-0.0026333455
47	0x3e4cd726	0.20003948
48	0xbe3d9c9a	-0.1851677
49	0xbe1234d9	-0.14277972
50	0xbdbb5be6	-0.091483876
51	0xbd528e64	-0.051405326
52	0xbe54230f	-0.20716499
53	0xbcc433f8	-0.023950562
54	0xbe886b7a	-0.26644498
55	0x3d6d6cbe	0.057965033
56	0xbd1ad5ae	-0.037801437
57	0x3e468445	0.19386394
58	0x3cf97b41	0.03045428
59	0x3c24bc41	0.010054649
60	0xbe4c3ef7	-0.19945894
61	0x3e69a3ce	0.22816393
62	0x3b95de2c	0.004573604
63	0xbd187e51	-0.03722984
64	0xbe1247a3	-0.1428514
65	0xbddde749	-0.1083513
66	0xbd377445	-0.044788618
67	0xbdf93c2a	-0.121696785
68	0xbe202db7	-0.15642439
69	0xbd1ef558	-0.038808197
70	0xbb2cc900	-0.0026364923
71	0x3e6f5c6e	0.23375103
72	0xbe7a6e17	-0.24456058
73	0x3ca7d3fe	0.020486828
74	0x3dd29e3a	0.102840856
75	0x3e115bbf	0.14195155
76	0x3e61c64c	0.220483
77	0xbe440593	-0.19142751
78	0xbe31eb93	-0.1737502
79	0x3c8cb0c7	0.017174138
80	0x3e17b125	0.14813669
81	0x3df9b53e	0.12192772
82	0x3e580f42	0.2109957
83	0x3ccf6ec1	0.025321366
84	0x3e638bc7	0.2222129
85	0xbdabfa2d	-0.083973266
86	0x3bbf789a	0.0058432342
87	0xbdf82782	-0.121169105
88	0xbe163c26	-0.14671382
89	0xbd8d6514	-0.06904045
90	0x3d8af10e	0.06784259
91	0x3e2a0e41	0.16607
92	0x3d16f49c	0.03685437
93	0xbe4ff8ed	-0.20309801
94	0xbe0f384d	-0.13986321
95	0xbe09abe5	-0.13444479
96	0x3e47d231	0.19513775
97	0xbe7062d8	-0.23475206
98	0xbe2eb63a	-0.17061701
99	0x3e6bfa9d	0.2304482
100	0x3e243542	0.16035941
101	0x3e438bc1	0.1909628
102	0x3daf1ba5	0.08550195
103	0xbbed9be8	-0.0072512515
104	0x3e1db0ba	0.15399447
105	0x3c898c40	0.01679051
106	0x3d165789	0.036704574
107	0xbe60fdd4	-0.21971828
108	0xbd170681	-0.036871437
109	0x3e6197e2	0.22030595
110	0x3dc9a780	0.09846401
111	0xbe542981	-0.20718957
112	0xbdb32cad	-0.087487556
113	0xbd884d1b	-0.06655332
114	0xbdb352b1	-0.087560065
115	0xbdd6def4	-0.10491744
116	0x3e329f49	0.17443575
117	0x3e1ae551	0.1512654
118	0xbe1efc48	-0.15525925
119	0xbe605f93	-0.21911459
120	0x3e14bfed	0.14526339
121	0x3de79158	0.11307019
122	0xbd89b8d0	-0.06724703
123	0x3d7433ad	0.059619594
124	0xbe6518b1	-0.223727
125	0xbe3ad345	-0.18244655
126	0x3d7394cf	0.059468087
127	0xbe395a7b	-0.18100922
128	0x3d52b894	0.05144556
129	0xbdc2b878	-0.09507841
130	0xbd0599de	-0.032617442
131	0xbe3c2663	-0.18374018
132	0x3df5c642	0.12000705
133	0x3e3bca51	0.18338896
134	0x3e6b3aa2	0.22971585
135	0x3d99928a	0.07498653
136	0xbd097aa4	-0.033564225
137	0xbe555468	-0.2083298
138	0xbdacaac6	-0.0843101
139	0x3dbb731a	0.09152813
140	0xbce77674	-0.028254725
141	0xbe03de02	-0.12877658
142	0xbe7019b9	-0.23447312
143	0xbda11522	-0.07865359
144	0x3da444d0	0.080209374
145	0x3e36bec9	0.17846216
146	0x3dd73f32	0.105101004
147	0xbe543403	-0.20722966
148	0x3dc86f0e	0.09786807
149	0xbdbaff97	-0.09130781
150	0xbd89db96	-0.06731336
151	0x3e05c598	0.13063657
152	0x3dfed919	0.12443752
153	0x3e0de406	0.13856515
154	0x3d8d4ec1	0.06899787
155	0xbe1e9c55	-0.15489323
156	0xbe5d9aad	-0.21641035
157	0x3d807f61	0.062742956
158	0x3dfa80a4	0.122315675
159	0xbe817098	-0.25281215
160	0xbe680452	-0.22657898
161	0xbdcfc108	-0.1014424
162	0x3e46a689	0.19399466
163	0x3e48b7b5	0.19601329
164	0x3de33cf4	0.1109561
165	0xbe0228a0	-0.1271081
166	0x3e38c731	0.18044735
167	0x3e5a7f33	0.21337585
168	0x3de7ba3f	0.113148205
169	0xbde8aba6	-0.11360864
170	0xbe0f842e	-0.14015266
171	0x3e434868	0.1907059
172	0x3e1a295b	0.15054838
173	0x3ca7c81a	0.020481158
174	0x3e5713dd	0.21003671
175	0xbdec28b0	-0.11531198
176	0x3e462f0f	0.19353889
177	0xbce10843	-0.02746976
178	0x3de45658	0.11149281
179	0xbcd0d238	-0.025490865
180	0x3d1d0117	0.038331117
181	0xbe5e130b	-0.21686952
182	0x3d85946b	0.06522449
183	0xbe119b37	-0.14219366
184	0x3d9d4f47	0.076811366
185	0xbe30a14d	-0.17249031
186	0x3d18c975	0.0373015
187	0xbe2abc8e	-0.1667349
188	0x3e82fdf7	0.25584385
189	0xbdc32587	-0.09528642
190	0x3e376bfd	0.17912288
191	0x3dcb2b4d	0.09920368
192	0x3e72a0e3	0.23694186
193	0xbe62cbe9	-0.22148098
194	0xbd356654	-0.04428704
195	0xbd5e2bce	-0.054240994
196	0x3dee76ef	0.116437785
197	0x3d907e48	0.07055336
198	0xbe65cdbe	-0.22441766
199	0x3d239b29	0.039942894
200	0xbb1a8a89	-0.0023581109
201	0x3e23fefc	0.16015238
202	0xbe072c83	-0.13200574
203	0x3df23894	0.11827198
204	0x3ddc2081	0.10748387
205	0xbe4325fd	-0.1905746
206	0x3e9c3ce6	0.30515212
207	0x3d155ccb	0.036465447
208	0xbe6d433c	-0.23170179
209	0xbdd97730	-0.10618436
210	0x3d5919c3	0.053003084
211	0x3e06f001	0.13177492
212	0xbc412f79	-0.0117911035
213	0xbd8d303f	-0.06893968
214	0x3e3ec3a1	0.18629314
215	0x3e06a213	0.13147764
216	0xbe4bd082	-0.19903758
217	0x3d449d55	0.048001606
218	0xbdd9db25	-0.106375016
219	0x3dcb8fac	0.099395126
220	0xbca51ba1	-0.020154776
221	0x3e81bae1	0.2533789
222	0x3dd2d8cb	0.10295256
223	0xbe2fff5c	-0.17187256
224	0x3d9a5d79	0.0753736
225	0xbd0ac7d9	-0.033881996
226	0xbcce809c	-0.02520781
227	0xbc366ae1	-0.01113388
228	0x3e7b2454	0.24525577
229	0x3e42612d	0.18982382
230	0x3d5b2799	0.05350456
231	0x3bc3c2ad	0.005974135
232	0x3dfd8a2c	0.1237987
233	0x3e0efdbe	0.13963982
234	0x3c8d2210	0.017228156
235	0xbe10be09	-0.14134993
236	0xbe5e8754	-0.21731311
237	0xb9a80e67	-0.00032054188
238	0x3e613d86	0.21996126
239	0x3e3b2891	0.18277194
240	0x3d70e0c4	0.058808103
241	0xbe007cbc	-0.12547582
242	0xbe448434	-0.19191056
243	0xbd78a374	-0.060702756
244	0x3e0de47b	0.1385669
245	0x3d185fc5	0.037200708
246	0xbe3a1577	-0.1817225
247	0x3e063846	0.13107404
248	0x3e42dbf9	0.19029225
249	0xbd0c4d37	-0.034253325
250	0xbd195ae3	-0.037440192
251	0xbcec4b0a	-0.028844375
252	0xbb9cb6a8	-0.0047825165
253	0xbdd9349e	-0.10605739
254	0x3bfae719	0.0076569435
255	0x3d9bc78a	0.076064184
