W2_ini.npy (npy, 40128 bytes, 1 tensors)

array f4 [100, 100]
0	0xbc8ee154	-0.01744143
1	0x3e04beeb	0.12963454
2	0x3e254b88	0.16142094
3	0x3d25cc4a	0.04047803
4	0x3da02253	0.07819047
5	0xbd90086a	-0.07032855
6	0xbddaaeab	-0.106778465
7	0x3c8a2cc2	0.016867045
8	0xbc7f8692	-0.015596049
9	0xbd4696ce	-0.048483662
10	0xbe2a1ce4	-0.16612583
11	0x3df36bfa	0.11885829
12	0xbd351f29	-0.04421917
13	0xbc8fdd8f	-0.017561702
14	0xbdbbd234	-0.091709524
15	0x3df81e44	0.12115148
16	0x3c6be790	0.0143984705
17	0xbd0e9ad3	-0.03481562
18	0x3c8c239b	0.017106822
19	0x3d9dd56a	0.07706721
20	0xbda4d384	-0.08048156
21	0x3df418fa	0.119188264
22	0x3dd458df	0.10368513
23	0x3cbfb8ab	0.023403486
24	0xbe102301	-0.14075853
25	0x3e01f30a	0.12690368
26	0x3b8fe964	0.004391836
27	0xbe00bada	-0.12571278
28	0x3d0053d8	0.03132996
29	0x3e123d6f	0.14281248
30	0xbd5280dd	-0.051392425
31	0x3d1cf8a5	0.038323063
32	0xbdaf95ed	-0.08573518
33	0xbd2b1708	-0.04177001
34	0x3dcf778e	0.10130225
35	0x3cfd8f24	0.030952044
36	0x3b6c7040	0.0036077648
37	0xbc9ed135	-0.019386867
38	0xbd9769b5	-0.07393209
39	0x3cdb2a37	0.026753528
40	0xbce2e2e0	-0.027696073
41	0x3c64c95d	0.013964024
42	0xbc69d010	-0.014270797
43	0xbcda0e17	-0.026618047
44	0xbc2bd1f0	-0.010487065
45	0xbd0c0428	-0.03418365
46	0xbc0d634f	-0.008629634
47	0x3e0bfdbc	0.1367101
48	0x3dfc28c5	0.12312464
49	0x3c38c64d	0.011277747
50	0xbda1f525	-0.07908086
51	0x3b37d034	0.0028047683
52	0xbd58baee	-0.052912645
53	0xbac31ae7	-0.0014885337
54	0xbd6d909d	-0.057999242
55	0x3dadf084	0.0849314
56	0xbe1712b4	-0.14753228
57	0x3a740205	0.0009308162
58	0xbdcdfc74	-0.10057917
59	0x3dae87f4	0.08522025
60	0x3d9c0bb4	0.0761942
61	0x3d906f5f	0.07052492
62	0xbcc27018	-0.023735091
63	0x3e309468	0.17244112
64	0x3d234562	0.03986109
65	0x3d9b20b6	0.075745985
66	0xbdf0a233	-0.11749687
67	0xbe0a8d0e	-0.1353037
68	0x3bafb8a3	0.0053625866
69	0xbd31bbae	-0.043391876
70	0x3e2fdfc3	0.17175202
71	0x3e0bd390	0.13654923
72	0x3d6b2a51	0.057413403
73	0xbc21b2d2	-0.009869294
74	0xbe039454	-0.12849551
75	0xbc90819f	-0.017639933
76	0xbdaa4f1c	-0.0831587
77	0xbdc2f132	-0.095186606
78	0x3d93544d	0.071938135
79	0x3da070d3	0.078340195
80	0xbe09d5f4	-0.13460523
81	0x3c7bc307	0.015366322
82	0xbdd55238	-0.104160726
83	0xbda683cb	-0.08130606
84	0xbe02b184	-0.1276303
85	0xbe17f1d1	-0.1483834
86	0xbde50bd4	-0.11183897
87	0x3d368a9a	0.044565775
88	0xbd701497	-0.058613386
89	0x3de9b326	0.11411123
90	0x3dfea6ba	0.12434144
91	0xbe092ef4	-0.13396817
92	0xbd4d6bdb	-0.050151687
93	0xbdbec1fe	-0.09314345
94	0x3de08da3	0.10964515
95	0x3e15af49	0.14617647
96	0xbe027a9d	-0.12742086
97	0x3e1714af	0.14753984
98	0x3da6da42	0.08147098
99	0x3d4c5e84	0.049894825
100	0xbd8d3200	-0.06894302
101	0xbd991d44	-0.07476285
102	0x3da0da17	0.07854097
103	0x3d7292ac	0.05922191
104	0x3d2e3b26	0.042536877
105	0x3cfaaf09	0.030601041
106	0x3dd3331e	0.10312484
107	0xbd9a0f6d	-0.075224735
108	0xbe15173e	-0.14559647
109	0xbdffe85a	-0.124954894
110	0xbe0eaa30	-0.13932109
111	0x3da9d451	0.08292449
112	0x3ddf77da	0.10911532
113	0xbdffcdcc	-0.124904245
114	0xbcab30bd	-0.020897264
115	0x3e07ca6b	0.1326081
116	0xbd112534	-0.03543587
117	0x3c9cab2b	0.019124588
118	0xbce76ea1	-0.028250994
119	0x3e296e8e	0.1654608
120	0xbdb214d5	-0.0869538
121	0x3e1d8faf	0.15386842
122	0x3e01e6df	0.12685727
123	0x3cc3d7fb	0.023906698
124	0xbdacc449	-0.08435876
125	0x3dbebd61	0.09313465
126	0xbdca11dd	-0.098666884
127	0x3e0b9e22	0.13634542
128	0x3c849b0e	0.016187217
129	0x3d57d837	0.052696433
130	0x3dee7aed	0.1164454
131	0xbc93e060	-0.018051326
132	0x3d8506e2	0.064954534
133	0xbd3e0772	-0.04639382
134	0x3e24682d	0.16055365
135	0xbe310aa3	-0.17289214
136	0xbdc4c31c	-0.09607527
137	0x3d545f11	0.051848475
138	0x3e2d2dc4	0.1691199
139	0xbdaa64ff	-0.08320045
140	0x3d66f65f	0.0563873
141	0x3d5c850f	0.053837832
142	0x3de4da56	0.11174457
143	0x3e0485de	0.12941691
144	0xbd73517c	-0.05940388
145	0xbdb4561e	-0.08805488
146	0xbc859c15	-0.016309777
147	0x3dfded61	0.12398792
148	0xbe278bbf	-0.16361903
149	0xbca1f7a6	-0.019771408
150	0x3dfb13bc	0.122596234
151	0x3dea7360	0.11447787
152	0xbdf0c42f	-0.11756169
153	0xbceee0fc	-0.029160015
154	0xbdf1d6ca	-0.11808546
155	0x3cbc894d	0.023014689
156	0xbd7828fb	-0.060585957
157	0x3db1bfc5	0.08679155
158	0xbe086f65	-0.13323744
159	0x3dcf21e4	0.10113886
160	0xbd25f876	-0.040520154
161	0x3d2e6726	0.04257884
162	0xbceb8f33	-0.028754806
163	0xbe1c6303	-0.15272145
164	0x3e282c5d	0.16423173
165	0xbe12c8f5	-0.14334472
166	0xbddde33b	-0.108343564
167	0x3d9324ca	0.07184751
168	0x3d9c3127	0.076265626
169	0x3e19f06e	0.15033123
170	0xbd8649ed	-0.06557069
171	0x3d912728	0.070875466
172	0x3dd6c2fa	0.104864076
173	0x3dd3e5a3	0.10346534
174	0xbb190b71	-0.0023352767
175	0x3db09f04	0.0862408
176	0x3e2e6d23	0.1703382
177	0x3c09a307	0.008400685
178	0x3d75b9b9	0.059991572
179	0xbcec944e	-0.028879311
180	0xbe1511cb	-0.14557569
181	0xbdb293cd	-0.08719597
182	0xbdc6d352	-0.09708275
183	0x3cf5dd5e	0.030012783
184	0x3d802381	0.06256772
185	0xbdc52ea5	-0.09628037
186	0x3e07514e	0.13214609
187	0xbe13a0af	-0.14416765
188	0x3d09ed7a	0.03367374
189	0x3e2dab81	0.16959955
190	0xbd0c89cf	-0.034311112
191	0x3e0c03d5	0.13673337
192	0x3daa024f	0.083012216
193	0xbcf2f6a2	-0.02965862
194	0x3dc79ae4	0.0974634
195	0x3e1fbf23	0.15600257
196	0x3dadc42a	0.08484681
197	0x3e1e6005	0.15466316
198	0x3d2fd75b	0.04292999
199	0x3c19e107	0.00939203
200	0xbd209d5c	-0.03921257
201	0x3e0e6ba6	0.13908252
202	0x3ba9d563	0.0051829084
203	0x3de3458a	0.11097248
204	0xbd69de51	-0.057096783
205	0x3e21e8d9	0.1581148
206	0x3d79bb97	0.060969915
207	0xbd25ad00	-0.04044819
208	0xbdfabfdc	-0.122436255
209	0x3de179e0	0.11009574
210	0xbc9e6f5e	-0.019340213
211	0xbde6b1e7	-0.11264401
212	0xbdc2a786	-0.09504609
213	0xbe218704	-0.1577416
214	0xbe2f9aea	-0.17148939
215	0xbe228b22	-0.15873387
216	0xbdc1916e	-0.09451567
217	0xbdbc57b3	-0.09196415
218	0x3e13cd7d	0.14433856
219	0xbdacb6ac	-0.084332794
220	0x3bf9f105	0.0076276087
221	0x3e045162	0.1292167
222	0x3d8a75c3	0.067607425
223	0xbd01d4dd	-0.031697143
224	0xbddb1de5	-0.10699061
225	0xbced8000	-0.0289917
226	0x3cd2a54b	0.025713583
227	0xbda3eef1	-0.08004559
228	0x3e238f86	0.15972719
229	0xbd9159f8	-0.07097238
230	0xbdc37b21	-0.09544969
231	0x3dcf4cad	0.101220466
232	0x3db14868	0.086563885
233	0xbddaedab	-0.10689863
234	0xbb60dc15	-0.0034310867
235	0x3dad7e7f	0.08471393
236	0xbe02e275	-0.12781699
237	0xbe05c7b4	-0.13064462
238	0xbbb6ad02	-0.0055748234
239	0x3e216774	0.1576212
240	0xbe1f53c8	-0.15559304
241	0x3d26b207	0.040697124
242	0xbddd2d74	-0.10799685
243	0x3b7a4cf8	0.003819285
244	0x3db411e8	0.08792478
245	0x3dd2e4ed	0.102975704
246	0xbd909216	-0.07059114
247	0xbdedd451	-0.11612762
248	0xbdfe6bf6	-0.12422936
249	0xbe03f2c5	-0.12885578
250	0xbd378042	-0.04480005
251	0xbdedb0f5	-0.116060175
252	0x3ce5c778	0.028049216
253	0x3e196c42	0.14982703
254	0x3d9b86fb	0.07594105
255	0xbd2409c7	-0.040048387
