W3_ini.npy (npy, 928 bytes, 1 tensors)

array f4 [100, 2]
-0.044658154 -0.17979929 -0.11280009 0.08302882 -0.0429358 -0.08484818 -0.18767135 -0.2283637
0.15704305 0.091273285 0.18518396 -0.086168654 0.042707726 0.18626463 0.07628043 -0.014554978
0.19528908 -0.121828325 0.046341717 0.13036293 0.0047372594 0.14862537 -0.1753581 0.025590485
-0.27575573 0.06447358 -0.058177646 -0.13810082 0.05951874 0.03960074 -0.07641815 0.15374069
0.13867387 0.05315423 -0.20818931 0.041721962 -0.08615931 -0.0019911716 -0.16918688 0.13606164
-0.13741323 0.16568042 0.055258203 -0.05822828 0.13563144 -0.2063979 0.07146022 0.17173287
-0.18602112 0.08197492 -0.052712258 0.05703151 -0.1044225 0.08738208 -0.079948306 -0.023003364
0.2073735 -0.21851803 -0.08856912 0.017725926 0.24986403 0.1425892 0.054638103 0.031891003
0.17010742 -0.011617999 0.14549887 0.1258586 0.046177037 0.060423292 0.17628501 0.0135098025
-0.20593946 0.23007897 0.00400212 -0.27044997 0.1696604 0.10262606 0.18881962 -0.06859393
0.06720537 0.1927829 0.1484597 -0.11103205 -0.13539106 0.16608423 -0.2599707 -0.06985238
-0.06356494 0.1271075 0.098964676 0.12255821 -0.21396904 -0.26569122 0.20761979 -0.21929997
-0.12244624 -0.19795236 -0.15042 0.09149752 -0.010062674 0.2621783 -0.03708174 -0.20734988
0.13661307 0.1426429 0.0042625256 0.22338857 -0.096111245 -0.13198063 -0.20453694 -0.2303093
0.24673502 -0.013360182 -0.10891399 -0.23757914 -0.0976527 0.18774232 0.15382653 0.11810318
0.21616891 -0.21157502 0.15369666 -0.22167249 0.19527078 0.11271057 -0.025494216 0.19580397
0.12566218 -0.098791435 0.092355505 0.12355816 0.059807416 0.22556342 0.088273495 0.19218999
0.014709701 0.21813539 -0.21741131 0.17145705 -0.08588836 -0.11493523 0.15963893 0.03807422
-0.16261716 0.24985147 0.13128696 0.1858284 -0.20507203 -0.19219449 0.010543993 -0.17169687
0.10543762 0.0055972994 -0.053222917 -0.14557076 0.1127854 0.0326552 -0.11482825 0.068960115
-0.16632897 -0.24312304 0.2178363 0.056691024 0.23954323 -0.051627547 -0.15205185 -0.08911375
-0.22808957 0.03442367 0.22293144 0.23436764 0.12850404 -0.023420291 0.15424918 0.07952236
0.14274232 0.21110226 0.18525098 0.23397101 0.077583574 0.12982461 -0.09357321 0.037287656
0.027650421 -0.19413401 -0.098041445 0.1550513 -0.21966682 0.20739536 0.23046672 -0.25220934
0.08341397 -0.05328588 -0.06250408 -0.23906891 -0.02895306 0.17437132 0.21956363 0.10980257
00000000: 78eb 36bd 4e1d 38be bc03 e7bd 040b aa3d
00000010: 73dd 2fbd e2c4 adbd eb2c 40be 2cd8 69be
00000020: e5cf 203e 7ded ba3d dda0 3d3e 3179 b0bd
00000030: 4cee 2e3d 28bc 3e3e ea38 9c3d 0178 6ebc
00000040: dcf9 473e 2181 f9bd d0d0 3d3d dc7d 053e
00000050: 033b 9b3b 4031 183e 1391 33be 23a3 d13c
00000060: db2f 8dbe b90a 843d af4b 6ebd 4d6a 0dbe
00000070: ecc9 733d 6334 223d 1e81 9cbd 336e 1d3e
00000080: 8600 0e3e 40b8 593d 942f 55be a6e4 2a3d
00000090: 4b74 b0bd 517e 02bb 533f 2dbe be53 0b3e
000000a0: 0eb6 0cbe 21a8 293e 6d56 623d c780 6ebd
000000b0: f8e2 0a3e f959 53be bc59 923d beda 2f3e
000000c0: 527c 3ebe 78e2 a73d cfe8 57bd df99 693d
000000d0: 77db d5bd 60f5 b23d f0bb a3bd 8d71 bcbc
000000e0: b859 543e 31c3 5fbe ba63 b5bd f635 913c
000000f0: 5bdc 7f3e e702 123e 34cc 5f3d 24a0 023d
00000100: a430 2e3e 6b59 3ebc a8fd 143e 14e1 003e
00000110: 2224 3d3d 6a7e 773d 0f84 343e 3858 5d3c
00000120: cbe1 52be d299 6b3e 3724 833b 6b78 8abe
00000130: 75bb 2d3e 9d2d d23d ee59 413e f97a 8cbd
00000140: f8a2 893d e168 453e d205 183e c564 e3bd
00000150: f4a3 0abe fc11 2a3e e11a 85be c40e 8fbd
00000160: 562e 82bd 7828 023e fead ca3d ccff fa3d
00000170: b31a 5bbe ae08 88be 489a 543e 2c90 60be
00000180: 18c5 fabd 06b4 4abe b307 1abe 0d63 bb3d
00000190: eadd 24bc 3c3c 863e 06e3 17bd 8753 54be
000001a0: 4ce4 0b3e fb10 123e a8ac 8b3b f9bf 643e
000001b0: f9d5 c4bd ee25 07be 2272 51be 33d6 6bbe
000001c0: 1ba8 7c3e aae4 5abc 4c0e dfbd f247 73be
000001d0: 24fe c7bd 863f 403e b484 1d3e 14e0 f13d
000001e0: 625b 5d3e 1fa7 58be a862 1d3e 1dfe 62be
000001f0: 10f5 473e cdd4 e63d 3fd9 d0bc d680 483e
00000200: 96ad 003e 2a53 cabd e224 bd3d 100c fd3d
00000210: 9ff8 743d 19fa 663e bcc8 b43d 74cd 443e
00000220: f500 713c e25e 5f3e 12a1 5ebe 7092 2f3e
00000230: 3de6 afbd 2963 ebbd 6378 233e b7f3 1b3d
00000240: 1d85 26be 10d9 7f3e 1770 063e cd49 3e3e
00000250: 67fe 51be a2ce 44be b6c0 2c3c 4ed1 2fbe
00000260: aeef d73d 8d69 b73b 4600 5abd 8010 15be
00000270: 08fc e63d 76c1 053d 132b ebbd f63a 8d3d
00000280: 2452 2abe 3ff5 78be 7b10 5f3e d934 683d
00000290: d24a 753e 6877 53bd 7bb3 1bbe 4581 b6bd
000002a0: 5090 69be d6ff 0c3d 2448 643e 12fe 6f3e
000002b0: 9096 033e e9db bfbc 7ff3 1d3e 9edc a23d
000002c0: 0b2b 123e 312b 583e 6fb2 3d3e 1996 6f3e
000002d0: 23e4 9e3d bef0 043e 50a3 bfbd f1ba 183d
000002e0: 2383 e23c 11cb 46be f4c9 c8bd c5c5 1e3e
000002f0: 57f0 60be 735f 543e 78ff 6b3e 9521 81be
00000300: f2d4 aa3d 4b42 5abd 2402 80bd 7bce 74be
00000310: f82e edbc 658e 323e 4ad5 603e 2be0 e03d
